…
  k = 1

  #epochs
  epochs = 15000

  #batch_size
  batch_size = 25

  # optimizers
  d_opt = ( RMSprop(lr=0.00002, decay=6e-8), 'binary_crossentropy' , ['accuracy'] )
  g_opt = ( RMSprop(lr=0.08, clipvalue=1.0, decay=6e-8) , 'binary_crossentropy' , ['accuracy'] )
  stacked_opt = ( RMSprop(lr=0.001, decay=3e-8), 'binary_crossentropy' , ['accuracy'] )

  Discrimnator:

  _________________________________________________________________
  Layer (type)                 Output Shape              Param #
  =================================================================
  conv2d_1 (Conv2D)            (None, 53, 33, 32)        896
  _________________________________________________________________
  activation_1 (Activation)    (None, 53, 33, 32)        0
  _________________________________________________________________
  conv2d_2 (Conv2D)            (None, 51, 31, 32)        9248
  _________________________________________________________________
  activation_2 (Activation)    (None, 51, 31, 32)        0
  _________________________________________________________________
  max_pooling2d_1 (MaxPooling2 (None, 25, 15, 32)        0
  _________________________________________________________________
  dropout_1 (Dropout)          (None, 25, 15, 32)        0
  _________________________________________________________________
  conv2d_3 (Conv2D)            (None, 25, 15, 64)        18496
  _________________________________________________________________
  activation_3 (Activation)    (None, 25, 15, 64)        0
  _________________________________________________________________
  conv2d_4 (Conv2D)            (None, 23, 13, 64)        36928
  _________________________________________________________________
  activation_4 (Activation)    (None, 23, 13, 64)        0
  _________________________________________________________________
  max_pooling2d_2 (MaxPooling2 (None, 11, 6, 64)         0
  _________________________________________________________________
  dropout_2 (Dropout)          (None, 11, 6, 64)         0
  _________________________________________________________________
  flatten_1 (Flatten)          (None, 4224)              0
  _________________________________________________________________
  dense_1 (Dense)              (None, 512)               2163200
  _________________________________________________________________
  activation_5 (Activation)    (None, 512)               0
  _________________________________________________________________
  dropout_3 (Dropout)          (None, 512)               0
  _________________________________________________________________
  dense_2 (Dense)              (None, 1)                 513
  _________________________________________________________________
  activation_6 (Activation)    (None, 1)                 0
  =================================================================
  Total params: 2,229,281
  Trainable params: 2,229,281
  Non-trainable params: 0
  _________________________________________________________________
  Generator:

  _________________________________________________________________
  Layer (type)                 Output Shape              Param #
  =================================================================
  dense_3 (Dense)              (None, 100)               10100
  _________________________________________________________________
  activation_7 (Activation)    (None, 100)               0
  _________________________________________________________________
  dense_4 (Dense)              (None, 300)               30300
  _________________________________________________________________
  activation_8 (Activation)    (None, 300)               0
  _________________________________________________________________
  dense_5 (Dense)              (None, 312)               93912
  _________________________________________________________________
  dropout_4 (Dropout)          (None, 312)               0
  _________________________________________________________________
  reshape_1 (Reshape)          (None, 13, 8, 3)          0
  _________________________________________________________________
  conv2d_transpose_1 (Conv2DTr (None, 26, 16, 64)        1792
  _________________________________________________________________
  activation_9 (Activation)    (None, 26, 16, 64)        0
  _________________________________________________________________
  conv2d_transpose_2 (Conv2DTr (None, 53, 33, 64)        36928
  _________________________________________________________________
  activation_10 (Activation)   (None, 53, 33, 64)        0
  _________________________________________________________________
  conv2d_transpose_3 (Conv2DTr (None, 53, 33, 64)        36928
  _________________________________________________________________
  activation_11 (Activation)   (None, 53, 33, 64)        0
  _________________________________________________________________
  conv2d_transpose_4 (Conv2DTr (None, 53, 33, 3)         1731
  _________________________________________________________________
  activation_12 (Activation)   (None, 53, 33, 3)         0
  =================================================================
  Total params: 211,691
  Trainable params: 211,691
  Non-trainable params: 0

  Epoch: 9120;  D loss: 0.00249999994412, acc: 7.97119247913; G loss: 1.19209332183e-07, acc: 0.0
  Epoch: 9130;  D loss: 0.0, acc: 7.97119247913; G loss: 1.19209332183e-07, acc: 0.0
  Epoch: 9140;  D loss: 0.00249999994412, acc: 7.97119253874; G loss: 1.19209332183e-07, acc: 0.0
…
